single batch size: 60 
batch size: 15 
epochs: 30 
split point: 0.8 
training loss: [… lowest training loss: 0.002932874485850334  
last training loss: 0.0031172516755759716  
validation loss: [… lowest validation loss: 0.0023628431372344494  
last validation loss: 0.0023628431372344494  
Model: "sequential"
_________________________________________________________________
Layer (type)                 Output Shape              Param #   
=================================================================
lstm (LSTM)                  (None, 60, 32)            4352      
_________________________________________________________________
dropout (Dropout)            (None, 60, 32)            0         
_________________________________________________________________
lstm_1 (LSTM)                (None, 60, 32)            8320      
_________________________________________________________________
dropout_1 (Dropout)          (None, 60, 32)            0         
_________________________________________________________________
lstm_2 (LSTM)                (None, 32)                8320      
_________________________________________________________________
dropout_2 (Dropout)          (None, 32)                0         
_________________________________________________________________
dense (Dense)                (None, 1)                 33        
=================================================================
Total params: 21,025
Trainable params: 21,025
Non-trainable params: 0
_________________________________________________________________
