single batch size: 30 
batch size: 32 
epochs: 30 
split point: 0.8 
training loss: [… lowest training loss: 0.00021365621068980545  
last training loss: 0.00024491859949193895  
validation loss: [… lowest validation loss: 0.0011797785991802812  
last validation loss: 0.001676730695180595  
Model: "sequential"
_________________________________________________________________
Layer (type)                 Output Shape              Param #   
=================================================================
lstm (LSTM)                  (None, 30, 32)            4352      
_________________________________________________________________
dropout (Dropout)            (None, 30, 32)            0         
_________________________________________________________________
lstm_1 (LSTM)                (None, 30, 32)            8320      
_________________________________________________________________
dropout_1 (Dropout)          (None, 30, 32)            0         
_________________________________________________________________
lstm_2 (LSTM)                (None, 32)                8320      
_________________________________________________________________
dropout_2 (Dropout)          (None, 32)                0         
_________________________________________________________________
dense (Dense)                (None, 1)                 33        
=================================================================
Total params: 21,025
Trainable params: 21,025
Non-trainable params: 0
_________________________________________________________________
