single batch size: 30 
batch size: 32 
epochs: 30 
split point: 0.8 
training loss: [… lowest training loss: 0.00021804618882015347  
last training loss: 0.00030038453405722976  
validation loss: [… lowest validation loss: 0.0031649465672671795  
last validation loss: 0.08718138933181763  
Model: "sequential"
_________________________________________________________________
Layer (type)                 Output Shape              Param #   
=================================================================
lstm (LSTM)                  (None, 30, 56)            12992     
_________________________________________________________________
dropout (Dropout)            (None, 30, 56)            0         
_________________________________________________________________
lstm_1 (LSTM)                (None, 30, 28)            9520      
_________________________________________________________________
dropout_1 (Dropout)          (None, 30, 28)            0         
_________________________________________________________________
lstm_2 (LSTM)                (None, 14)                2408      
_________________________________________________________________
dropout_2 (Dropout)          (None, 14)                0         
_________________________________________________________________
dense (Dense)                (None, 1)                 15        
=================================================================
Total params: 24,935
Trainable params: 24,935
Non-trainable params: 0
_________________________________________________________________
