single batch size: 30 
batch size: 32 
epochs: 30 
split point: 0.8 
training loss: [… lowest training loss: 0.008800600655376911  
last training loss: 0.008800600655376911  
validation loss: [… lowest training loss: 0.0006708562141284347  
last training loss: 0.0006708562141284347  
Model: "sequential"
_________________________________________________________________
Layer (type)                 Output Shape              Param #   
=================================================================
lstm (LSTM)                  (None, 30, 32)            4352      
_________________________________________________________________
dropout (Dropout)            (None, 30, 32)            0         
_________________________________________________________________
lstm_1 (LSTM)                (None, 8)                 1312      
_________________________________________________________________
dropout_1 (Dropout)          (None, 8)                 0         
_________________________________________________________________
dense (Dense)                (None, 1)                 9         
=================================================================
Total params: 5,673
Trainable params: 5,673
Non-trainable params: 0
_________________________________________________________________
